my_model/mobilenetv2_12/1/model.onnx (onnx, 1772 bytes, 4 tensors)

fc1.weight f4 [20, 10]
000000 50 d2 92 3d b1 12 95 be 98 8b 12 3d 90 15 98 3d
       0.0716902 -0.29115823 0.03577766 0.07425988
000010 0a 96 4a 3e 9c cf b3 3d 9c 06 71 be 10 23 92 bc
       0.19783798 0.08779833 -0.23537678 -0.017838985
000020 16 23 7e 3e e0 a3 b5 3d e9 df 7d be 6b 1e 9c be
       0.24818072 0.08869147 -0.24792446 -0.30491957
000030 8c 45 be 3d 6c ea b7 3d 32 a1 7e be 51 6c 90 3e
       0.09290609 0.08980259 -0.24866179 0.2820764
000040 41 7f 3e be 5c 10 40 be 70 c6 38 3e 99 3b 56 be
       -0.18603231 -0.1875624 0.18044448 -0.20921172
000050 be c4 8b be 74 78 96 bd b8 26 14 3e 01 5c a0 3e
       -0.2729854 -0.07347193 0.14467895 0.31320193
000060 5a 04 af bd 80 c9 ff bb 0e 2b f9 bd f8 e9 4b 3d
       -0.08545752 -0.007806003 -0.12166415 0.049783677
000070 3f de 32 be 9a 43 67 be 80 bc ba 3d 54 6b 2e 3e
       -0.17467593 -0.22584382 0.09117985 0.1703313
000080 37 e2 84 3e 9a e9 6c be d2 03 5e 3e f6 1c 1c 3e
       0.25953838 -0.23135987 0.21681145 0.15245423
000090 84 9f 7c be 08 40 2a 3e 5c 05 08 3e 0a 9f 6e be
       -0.24670225 0.16625988 0.13283294 -0.23302856
0000a0 be cd 49 3e 00 49 e9 3b 2e e6 a8 bd 98 98 9d bd
       0.1970739 0.007119298 -0.08247028 -0.076951206
0000b0 0e 49 b5 bd 32 fb 57 3e 3f c7 4d be d6 15 22 3e
       -0.08851825 0.21091917 -0.20095538 0.15828642
0000c0 0c 91 8a be 8c f4 c2 bd 78 71 19 bd 80 e3 3d 3c
       -0.27063787 -0.095193 -0.037461728 0.011589885
0000d0 80 ab ae 3c b0 e4 b0 3c f0 64 58 3d 3e c2 0c be
       0.021322012 0.021593422 0.052830637 -0.13745973
0000e0 65 2c 97 be 2b 2d 3a be 48 9b 4f bd 84 b5 90 be
       -0.29526058 -0.18181293 -0.050685197 -0.28263485
0000f0 70 68 2e 3e 1e c0 7d be 60 72 a5 3d 3e 56 5f 3e
       0.17032027 -0.24780318 0.08078456 0.21810243
000100 78 8c 5f be 78 f7 7e bd fe 1a a0 be dc 51 ca 3d
       -0.21830928 -0.062247723 -0.31270593 0.09878895
000110 8b 02 0b be 78 dc 19 3e d8 26 68 3d 74 a5 89 be
       -0.13575189 0.15025508 0.05667767 -0.26884043
000120 33 dc 81 be 90 ec e0 3c 1e 30 89 bd f8 37 11 bd
       -0.2536331 0.027456552 -0.06698631 -0.035453767
000130 da 90 48 3e 49 18 25 be 7a c6 65 be 51 ed 91 3e
       0.19586506 -0.16122545 -0.22438994 0.2850137
000140 b4 a1 fe 3d c0 d1 58 3c e6 2d 35 be fe 95 69 3e
       0.12433186 0.013233602 -0.1769329 0.22811124
000150 ae b3 5b 3e 60 3d a7 bc a4 98 55 be c4 53 a0 be
       0.21455261 -0.020415008 -0.20859009 -0.31313908
000160 df 50 90 3e b4 bd e6 3d fa 5a 50 be 4a d6 98 be
       0.281867 0.11266652 -0.20347205 -0.2985099
000170 e6 b9 12 be 65 86 89 3e 86 fb 74 be 36 20 69 3e
       -0.14328727 0.26860347 -0.23924074 0.22766194
000180 40 6d 89 bd 28 9a c8 3d 48 ba 5e 3d 58 32 83 be
       -0.06710291 0.09795028 0.05437687 -0.25624347
000190 bb 30 81 be 32 91 29 3e 9d 01 93 be 42 3b 9d be
       -0.2523249 0.16559294 -0.28712168 -0.30709273
0001a0 e7 68 86 3e b4 41 89 3d 66 6f 68 3e 60 60 31 bc
       0.2625191 0.06701985 0.22698745 -0.0108262
0001b0 12 1b 72 be 0e 80 ef bd f0 94 2f 3e 44 e5 92 3d
       -0.23643139 -0.11694346 0.17146659 0.07172635
0001c0 66 0f 0e be 96 f0 99 be e2 2f 4e 3e 48 3b 36 3e
       -0.13873062 -0.30066365 0.20135453 0.17796052
0001d0 d0 85 d2 bc 48 6c 2e 3e 53 5c 9c 3e 08 cd 87 3d
       -0.025698572 0.17033494 0.30539188 0.066309035
0001e0 e1 56 99 3e d2 53 67 3e c1 c6 8f be d0 62 40 bd
       0.29949096 0.22590569 -0.28081325 -0.046969235
0001f0 48 9a 06 bd 00 d5 25 bd 0b 84 97 be 88 5d 13 3d
       -0.032861978 -0.040486336 -0.29592928 0.03597787
000200 01 99 5e be 88 86 0a be c0 3c 51 bc 8f 88 93 3e
       -0.21738054 -0.13527882 -0.012770832 0.28815123
000210 18 1c 06 3e ca ca 3b 3e 60 09 5c 3c 79 1e 64 be
       0.13096654 0.18339077 0.01342997 -0.2227725
000220 a0 af 97 be ab dc 88 3e 78 43 dd 3d d8 f1 86 be
       -0.2962618 0.26730856 0.10803884 -0.26356387
000230 3a d8 02 be e3 69 80 be 96 a3 3c be dc b5 bf 3d
       -0.12777796 -0.25080785 -0.18421778 0.09360859
000240 60 ba 4b bc 48 81 3b bd 73 48 30 be 09 2b 9b be
       -0.012434572 -0.04577759 -0.17215137 -0.3030627
000250 e0 54 17 3c dc cd 38 3e 58 80 93 be 94 90 d5 bd
       0.009236544 0.18047279 -0.28808856 -0.10427967
000260 a0 93 d0 3c 20 41 8b bc e8 dc 18 bd c0 23 85 be
       0.025461018 -0.016998827 -0.037320048 -0.26003838
000270 e8 a5 0f 3e 12 11 73 3e cd 28 9d 3e aa d9 4c 3e
       0.14028132 0.2373698 0.3069519 0.20004907
000280 58 bf bf bd 7b 77 08 be 50 7b 71 bd 80 2e e5 3c
       -0.09362668 -0.13326828 -0.05895549 0.027976274
000290 8c b2 03 3e 5f 5e 93 be 38 e5 ee 3d 32 e4 22 3e
       0.12861079 -0.28782937 0.11664814 0.15907362
0002a0 60 3d 9b 3d 2d a8 85 be ea 5b 4b be 7c 93 0b 3e
       0.07580066 -0.2610487 -0.19859281 0.1363048
0002b0 72 0e 47 3e 4f 87 92 3e 50 ee 06 bd 17 60 8a 3e
       0.19439104 0.28618857 -0.032942116 0.27026436
0002c0 2a 2a d3 bd 74 48 84 bd cc 0a 87 3d ca e1 26 3e
       -0.103107765 -0.06459132 0.06593856 0.16297069
0002d0 f4 dc 9c 3d 74 b1 cf 3d f1 e8 93 3e 26 43 ac bd
       0.07659331 0.101412684 0.28888658 -0.08411245
0002e0 4a ad 52 3e 6d f9 31 be 26 a2 75 be 70 e8 7c bd
       0.20573917 -0.17380305 -0.23987636 -0.061745107
0002f0 5d 4d 8a 3e 33 95 86 3e 5a 9f 00 3e ec f8 cc 3d
       0.27012148 0.26285705 0.12560788 0.100084156
000300 68 07 33 bd fb da 81 3e 92 52 52 be d6 1f 30 3e
       -0.043708235 0.2536238 -0.2053931 0.17199644
000310 46 e9 55 be 00 e4 39 3b e0 d6 62 3d cd 2f 8e be
       -0.20889768 0.0028364658 0.055380702 -0.27770844

fc1.bias f4 [20]
000000 9d 59 7d be bb d2 85 3e d8 b6 0d be cc 0a e1 3d
       -0.24741216 0.26137337 -0.1383928 0.109883875
000010 fa 75 4b be 77 ae 9f 3e 97 08 50 be ec bf ea bd
       -0.19869223 0.31187794 -0.20315777 -0.114623874
000020 45 a1 9c 3e 00 52 14 3b 8f 1b 3c be de 7a 52 be
       0.3059179 0.0022631884 -0.18369888 -0.20554683
000030 6e f0 1f 3e 98 c3 65 3d b6 f1 4b 3e f3 65 20 be
       0.1561906 0.056094736 0.19916424 -0.1566389
000040 f4 ae c2 3d 24 6d 4b be 90 8d 90 bd 74 86 e0 3d
       0.09506026 -0.19865853 -0.07058251 0.10963145

fc2.weight f4 [5, 20]
000000 94 71 84 3d 05 6c 1b be d0 d8 75 3d 0a 04 5c 3e
       0.06466976 -0.15177925 0.06002122 0.21485916
000010 72 e7 27 be 04 b6 e1 3d 69 68 4f be 0c 2a 1e 3e
       -0.16396883 0.11021045 -0.20254673 0.15445727
000020 ea 4f 4d 3e 64 f7 d2 3d e0 17 09 3d 70 a4 5c 3d
       0.20050016 0.10301092 0.033470035 0.053867757
000030 70 9b 49 3e 8a 7c 2b 3e 28 2c 48 be 10 8b 2f bc
       0.19688201 0.16746727 -0.19548094 -0.010714307
000040 eb ae f6 bd 9c 5f c1 bd ee 44 54 3e 34 3b 41 be
       -0.12045082 -0.09442064 0.2072942 -0.1887024
000050 30 e2 84 bc db 27 1f be 31 03 55 be a0 bd 31 bc
       -0.016221136 -0.15542547 -0.20801999 -0.010848433
000060 a6 05 06 3e ec 6e c1 3d 96 1a 1c be 32 8c f9 bd
       0.13088092 0.09444985 -0.15244517 -0.12184943
000070 80 38 8e bb 8e 7e 94 bd b8 3e cf 3d 16 ce 18 be
       -0.0043402314 -0.07250701 0.101193845 -0.14922366
000080 34 83 42 3e f8 dc c6 3d 08 e8 45 3e 90 68 e4 3d
       0.18995363 0.09710115 0.19326794 0.11152756
000090 f0 9a f9 3c 04 e4 8d 3d 38 ab bb 3d 68 46 49 3d
       0.030469388 0.06928256 0.09163517 0.04913941
0000a0 b4 47 5d 3e c8 0d 52 be eb ef 63 be 6c 7c 61 bd
       0.21609384 -0.2051307 -0.2225949 -0.0550503
0000b0 d4 b5 43 3e b0 ee 25 be 68 39 46 3d 46 99 2a 3e
       0.1911233 -0.16204333 0.04839459 0.16660032
0000c0 da 1c 3d 3e 74 ea 67 bd a8 2b 74 3d 75 4c 1f be
       0.18468037 -0.056620076 0.059611946 -0.1555651
0000d0 56 da 41 be a8 ea 30 be 96 20 30 3e f2 d0 3b 3e
       -0.18930945 -0.17277014 0.1719993 0.18341425
0000e0 15 45 d6 bd c1 0e 3c be bc 2f 8a 3d d0 39 39 3c
       -0.10462395 -0.18365003 0.06747386 0.0113052875
0000f0 8c e1 4c 3e 44 be ac 3d 36 7a 80 bd 68 16 e3 3d
       0.20007914 0.08434728 -0.0627331 0.11088258
000100 88 72 32 be 0e de 2c 3e 38 da 1a 3e 28 d6 29 bd
       -0.17426503 0.16881582 0.15122306 -0.041464
000110 bc b3 61 3e a6 bb 00 3e c2 58 38 3e c8 d7 8e 3d
       0.2204122 0.12571582 0.18002608 0.06974751
000120 b4 ef 37 bd d3 dc 51 be 58 50 89 3d 60 ba 5d bc
       -0.044906333 -0.20494394 0.067047775 -0.013533205
000130 18 3d 8a 3d c0 f6 06 3b 40 ae 3e bc 40 ae 91 bc
       0.06749934 0.0020593852 -0.011638224 -0.017783284
000140 00 17 0a be c8 5a 3f 3d f5 81 ec bd 31 87 61 be
       -0.13485336 0.046717435 -0.11548225 -0.22024228
000150 10 84 85 3d 38 0a 83 3d 2c a2 45 3e ee 71 d0 bd
       0.065193295 0.063984334 0.19300145 -0.1017798
000160 5c e4 36 bd b8 81 8c bc 70 92 c0 3d 40 0f f7 bc
       -0.044651374 -0.017151698 0.09402931 -0.030158639
000170 00 55 c6 bd 14 9e c4 3d 70 51 9f 3c d8 9e 3b be
       -0.09684181 0.096004635 0.019448012 -0.18322313
000180 6e 5f 49 be 2d f0 03 be 80 81 3b bd 12 3c 39 3e
       -0.1966531 -0.12884589 -0.045777798 0.18089321

fc2.bias f4 [5]
000000 c6 9a 9d bd 20 06 56 3e 54 7f 1a be ae d5 26 3e
       -0.07695536 0.20900774 -0.15087634 0.1629245
000010 f0 62 53 3c
       0.0129020065
